Reading: X_train.npy
Reading: Y_train.npy
Reading: X_valid.npy
Reading: Y_valid.npy
X_train: (26309, 56) float32
Y_train: (26309, 196, 115) float32
X_valid: (3269, 56) float32
Y_valid: (3269, 196, 115) float32
Model: "sequential"
_________________________________________________________________
Layer (type)                 Output Shape              Param #   
=================================================================
dense (Dense)                (None, 7500)              427500    
_________________________________________________________________
activation (Activation)      (None, 7500)              0         
_________________________________________________________________
dense_1 (Dense)              (None, 7500)              56257500  
_________________________________________________________________
activation_1 (Activation)    (None, 7500)              0         
_________________________________________________________________
reshape (Reshape)            (None, 25, 15, 20)        0         
_________________________________________________________________
conv2d_transpose (Conv2DTran (None, 50, 30, 20)        3620      
_________________________________________________________________
activation_2 (Activation)    (None, 50, 30, 20)        0         
_________________________________________________________________
conv2d_transpose_1 (Conv2DTr (None, 100, 60, 20)       3620      
_________________________________________________________________
activation_3 (Activation)    (None, 100, 60, 20)       0         
_________________________________________________________________
conv2d_transpose_2 (Conv2DTr (None, 200, 120, 20)      3620      
_________________________________________________________________
activation_4 (Activation)    (None, 200, 120, 20)      0         
_________________________________________________________________
conv2d (Conv2D)              (None, 200, 120, 1)       181       
_________________________________________________________________
activation_5 (Activation)    (None, 200, 120, 1)       0         
_________________________________________________________________
lambda (Lambda)              (None, 196, 115)          0         
=================================================================
Total params: 56,696,041
Trainable params: 56,696,041
Non-trainable params: 0
_________________________________________________________________
batch_size: 2632
train_ratio:             9.995821
valid_ratio:             1.242021
Writing: model_train.log
time            epoch       loss   val_loss
15:26:27            0   0.038876   0.033643 *
…
